models/lite_transformer.tflite (tflite, 529960 bytes, 29 tensors)

arith.constant10 f4 [2]
0	0x3b01def4	0.0019816728
1	0x3a4c2e01	0.00077888375

arith.constant11 f4 [256]
0	0xbb163b45	-0.002292351
1	0xbb132481	-0.0022452178
2	0x3ae09f5c	0.0017137337
3	0xbb3b3be7	-0.002856964
4	0x3ad4004c	0.0016174405
5	0x3abbc6c5	0.0014326206
6	0x3a87a0d9	0.0010347619
7	0xbb575d6d	-0.0032862083
8	0xb9c6a0af	-0.00037885222
9	0xbb8cb4ec	-0.0042940285
10	0xb9761410	-0.00023467862
11	0xba12a7eb	-0.000559448
12	0xbacd1a0e	-0.0015648024
13	0xbb0aff3a	-0.0021209256
14	0xbabaf78b	-0.0014264447
15	0x39b7f5be	0.00035087572
16	0xbac22e2b	-0.0014814785
17	0x3ace2b79	0.0015729509
18	0x3b070e76	0.0020607985
19	0x39258e04	0.00015788531
20	0x3ae319f2	0.0017326458
21	0x384d3248	4.8922637e-05
22	0xbabcece3	-0.001441386
23	0xbaad8618	-0.0013238816
24	0x39992fa1	0.0002921792
25	0xb9f11e6e	-0.00045989774
26	0x3a38c865	0.0007048904
27	0x3a490a15	0.0007669044
28	0xbb780ab6	-0.003784818
29	0xbb3467d7	-0.0027527714
30	0xb90602d1	-0.00012780285
31	0x38198125	3.6598318e-05
32	0xba51b1ce	-0.0007999212
33	0xbb523bd1	-0.003207911
34	0xbad2586e	-0.0016048083
35	0xbb05c0f2	-0.0020409194
36	0xbb4e0c1d	-0.0031440326
37	0x3a99d823	0.0011737387
38	0x389c645c	7.457353e-05
39	0xbc078ecd	-0.008273792
40	0xbac8dc51	-0.0015324448
41	0xba714c56	-0.00092047954
42	0x3ab43027	0.0013747261
43	0x3b285a79	0.0025688692
44	0xba097380	-0.0005243346
45	0xbab3c7ee	-0.00137162
46	0x39f8f7a1	0.00047486744
47	0x3a8c4637	0.0010702078
48	0xbb4e3fe2	-0.0031471183
49	0x3ad4457d	0.0016195026
50	0x3979925d	0.00023801015
51	0xbb281346	-0.0025646253
52	0x38eb7ed9	0.000112293004
53	0xba90ad2f	-0.0011037941
54	0x3b09ecb3	0.0021045625
55	0x3a472228	0.0007596337
56	0xb9eddb35	-0.00045367485
57	0x397471e4	0.00023312081
58	0x3a49e907	0.0007702265
59	0xbb8b0a00	-0.0042431355
60	0xba8c2c2b	-0.0010694315
61	0xbb1cbc65	-0.0023916003
62	0xb97b8d58	-0.0002398988
63	0xbb899490	-0.0041986182
64	0x39d55f5f	0.00040697583
65	0xbb56b57f	-0.0032761989
66	0x38f84f98	0.00011840387
67	0x39934409	0.00028088715
68	0xbaa34517	-0.0012456503
69	0x39b9f213	0.0003546631
70	0xb98cbc11	-0.00026843
71	0xbabc4a5d	-0.0014365424
72	0xba7b403f	-0.00095844636
73	0x39801c28	0.0002443504
74	0xb6f5cc92	-7.325384e-06
75	0xbae58d3c	-0.0017513405
76	0xba386af4	-0.000703498
77	0xbabce9b6	-0.0014412913
78	0xb93e81a8	-0.00018168113
79	0xbb6daeaf	-0.003626745
80	0xba028ea5	-0.0004980362
81	0xbb4e91f9	-0.0031520112
82	0xbb026eb3	-0.0019902408
83	0xbaba59fa	-0.0014217489
84	0x3b089df4	0.00208461
85	0xbb225857	-0.0024771893
86	0xbb8db0b7	-0.0043240446
87	0xba9812ca	-0.0011602279
88	0x3a09ba77	0.00052539207
89	0xb9f906f0	-0.0004749815
90	0xba9e58ec	-0.0012080944
91	0x3b64bc5f	0.0034902317
92	0xba5326a9	-0.0008054772
93	0x3b3e9cfe	0.0029085274
94	0xbacf1708	-0.001579971
95	0xbb9f3974	-0.004859144
96	0xba80fb00	-0.0009840429
97	0xbb1b76ce	-0.0023721936
98	0xbad06d42	-0.0015901702
99	0x3a9f7a54	0.0012167194
100	0x3afbdd03	0.0019215647
101	0x3b2b6c1a	0.0026156963
102	0xbaaabd06	-0.0013026304
103	0xbba40135	-0.0050050267
104	0xbb0aabc1	-0.0021159502
105	0xba93d3e5	-0.001127836
106	0x3a44474a	0.00074874295
107	0xbabb8c37	-0.0014308755
108	0xbb02bdee	-0.0019949633
109	0xba65cc57	-0.0008766106
110	0xbc15abdd	-0.009135214
111	0xba8fdcc5	-0.0010975829
112	0xba272838	-0.00063765375
113	0xba269ce1	-0.0006355774
114	0xbb85a400	-0.004078388
115	0x3b217e19	0.002464181
116	0x3ab5800d	0.0013847366
117	0xbb380fe6	-0.0028085648
118	0xba7b9ccf	-0.00095982564
119	0x3a3da198	0.0007233857
120	0x3a2fd9f7	0.00067081995
121	0xbb061d53	-0.0020464256
122	0xba59fa30	-0.0008315174
123	0x3a5fc1d7	0.0008535659
124	0xbb41ddc8	-0.0029581655
125	0xba7fc214	-0.0009756398
126	0xbb9d15e4	-0.0047938693
127	0xbb04a5db	-0.002024046
128	0x3a2f41fd	0.0006685553
129	0x3b3c9241	0.0028773698
130	0xba3b5eff	-0.00071476394
131	0xb9ac3af3	-0.00032850317
132	0x3aa7d92e	0.0012805813
133	0xb8e76062	-0.00011032891
134	0xbaeb5fe3	-0.0017957654
135	0x39efda53	0.00045748297
136	0xbb6da1db	-0.0036259803
137	0xba86835a	-0.0010262534
138	0xb951d876	-0.00020012431
139	0xba5ff3e8	-0.000854312
140	0xbb1fb7bd	-0.002437099
141	0xbb029971	-0.0019927884
142	0x3b4687db	0.0030293379
143	0xba7ab61c	-0.00095638796
144	0x3a5b6fc0	0.0008370839
145	0x3b8990a5	0.004198151
146	0xbb138b81	-0.002251357
147	0x3b0bb186	0.002131553
148	0xbb2c8fc3	-0.0026330806
149	0xba8877df	-0.0010411701
150	0xbb0d2bc5	-0.0021540981
151	0xb98c4ff6	-0.00026762456
152	0xbb0e66ad	-0.002172868
153	0xb9eb0124	-0.00044823543
154	0x3a3f94cc	0.0007308244
155	0xbc1ab9f0	-0.009443745
156	0xba9a841c	-0.0011788639
157	0xbabd20f9	-0.0014429382
158	0x3ba3509f	0.004983976
159	0xbb8f9ed4	-0.0043829475
160	0xbb0791c0	-0.002068624
161	0xb9fe42f3	-0.00048496536
162	0xb9f2c6b5	-0.00046305885
163	0xba176dc3	-0.00057765486
164	0xbaa5d685	-0.0012652433
165	0x3b398e2a	0.0028313496
166	0x3a6ffe67	0.00091550354
167	0x3912db2e	0.00014005296
168	0x381a15b2	3.6736667e-05
169	0xba9f716a	-0.0012164537
170	0x3a9c1357	0.0011907619
171	0xb8e81638	-0.000110667606
172	0xbb2be7ec	-0.0026230766
173	0xba9a9ee5	-0.0011796622
174	0xbb1200cf	-0.0022278314
175	0xbb05e8bf	-0.0020432917
176	0x3aa543b3	0.0012608677
177	0x397a4d40	0.00023870636
178	0xbb214b6a	-0.00246116
179	0x3a11f955	0.00055684644
180	0xba91fbea	-0.0011137698
181	0xbac2dab3	-0.0014866203
182	0xbb65adf5	-0.0035046313
183	0x3b32a9d3	0.0027261868
184	0xbb81b897	-0.0039587724
185	0xbb66d3d5	-0.0035221477
186	0xb8545674	-5.0625255e-05
187	0x3bfbb4bc	0.0076814573
188	0xb8847e88	-6.317819e-05
189	0xba528f0e	-0.0008032181
190	0xba72b545	-0.00092585786
191	0xb918dcd2	-0.00014578112
192	0x3a06ae83	0.00051376986
193	0x38ed6294	0.00011319402
194	0xba2f643b	-0.0006690656
195	0xbb2bcc38	-0.0026214253
196	0x3a861d58	0.0010232134
197	0x37c789e2	2.3786855e-05
198	0xb8d6c2d9	-0.000102406084
199	0x3abb548d	0.0014292166
200	0xba61fa4f	-0.0008620368
201	0xbadc70db	-0.0016818302
202	0xba0a2f92	-0.0005271371
203	0xbab79741	-0.0014006869
204	0xbb2b722e	-0.0026160586
205	0x3a0fcfcd	0.0005485982
206	0xb7aba287	-2.0460471e-05
207	0xbad1820d	-0.0015984193
208	0xba6f1055	-0.000911956
209	0xbbf50dbd	-0.0074784444
210	0xbb45333c	-0.0030090353
211	0xbafb7328	-0.00191841
212	0xbb1042ec	-0.0022012545
213	0x388cdfba	6.7173925e-05
214	0x3b08aa0f	0.0020853316
215	0xba8b0c4a	-0.0010608521
216	0x388cdf2a	6.717288e-05
217	0xba9c56ef	-0.0011927764
218	0xb9075b89	-0.00012908703
219	0xbb106f31	-0.0022038931
220	0xba8a6312	-0.001055809
221	0x3a72c262	0.00092605327
222	0x3689f4cf	4.1114176e-06
223	0x3b34f3f4	0.0027611228
224	0xbaa994e6	-0.0012938052
225	0xbb005294	-0.001958047
226	0xbb1e5205	-0.0024157774
227	0xbb8570b3	-0.0040722727
228	0xb9e94770	-0.00044494448
229	0xbb61c3f6	-0.0034449077
230	0xb96e14d6	-0.0002270521
231	0xba1d4132	-0.00059987896
232	0x39c40374	0.00037386606
233	0x3a97248e	0.001153128
234	0xbb8d8a6f	-0.004319481
235	0x3b663dfc	0.003513216
236	0xbbd9c616	-0.006645928
237	0x3a3078ea	0.0006731885
238	0xbaf76d10	-0.0018877108
239	0x3b0018be	0.0019545997
240	0x39b601e6	0.0003471516
241	0xba758771	-0.00093661906
242	0xbb06c7c2	-0.0020565842
243	0x3a9c585a	0.0011928186
244	0x39b26af9	0.00034030507
245	0x3a9eda96	0.0012119587
246	0xb9142762	-0.00014129051
247	0xb73ac46c	-1.1132197e-05
248	0xbb579bc6	-0.0032899245
249	0x3a467666	0.00075707433
250	0xbab65446	-0.0013910613
251	0xbb36bbc5	-0.0027882915
252	0xbabe3631	-0.0014512
253	0xbbb21957	-0.0054351497
254	0x3a2d7619	0.0006617024
255	0x3bf9a81e	0.007618918

arith.constant12 f4 [128]
0	0xbaaf2ea2	-0.0013365338
1	0xbab08f48	-0.0013470436
2	0x3a532654	0.00080547226
3	0xba0a6589	-0.0005279412
4	0x39a8a370	0.00032165227
5	0x3ae8a298	0.0017748652
6	0xbad16325	-0.0015974982
7	0xb9b3bda7	-0.00034282843
8	0xb8d6ae46	-0.00010236776
9	0x3a55518b	0.0008137456
10	0xba13f9ca	-0.00056448265
11	0xba8f700d	-0.0010943428
12	0x3aa01ae5	0.0012215046
13	0xba8f4f4d	-0.0010933668
14	0xba9da016	-0.0012025859
15	0xba5e9565	-0.00084908894
16	0xb868fbb6	-5.5547534e-05
17	0xba92da9a	-0.0011204064
18	0x393d8744	0.00018074835
19	0xba3eb382	-0.00072746736
20	0xba031be7	-0.0005001411
21	0xbafef5b7	-0.0019451891
22	0xb77b584a	-1.4981322e-05
23	0xba68ce93	-0.00088808796
24	0xb99bace2	-0.00029692712
25	0xb8ea97ae	-0.00011186242
26	0xba292012	-0.0006451617
27	0x3add0c92	0.0016864708
28	0x3941addf	0.00018470686
29	0xba9fa9fa	-0.0012181394
30	0x3a499380	0.0007689521
31	0xbabd9707	-0.0014464565
32	0xbaa4fdaf	-0.0012587811
33	0xba63eb58	-0.0008694432
34	0x3a6bfb7f	0.00090020144
35	0xba2d589e	-0.0006612631
36	0xb9d6bb75	-0.00040956927
37	0xba40f519	-0.0007360741
38	0xbaa1644b	-0.0012313215
39	0xb9a173ec	-0.00030794682
40	0xba143ef0	-0.00056551304
41	0x3866e01c	5.504499e-05
42	0xb9c97f5a	-0.00038432592
43	0x39f95186	0.0004755372
44	0x3b3e8750	0.0029072352
45	0x3aedda14	0.0018146657
46	0xba65a25d	-0.0008759851
47	0xba80d3c0	-0.0009828731
48	0xb89c909e	-7.465597e-05
49	0xba232626	-0.0006223641
50	0x3ac05962	0.0014675076
51	0xba4b8967	-0.000776431
52	0xb98a6849	-0.0002639911
53	0x3ac59b95	0.0015076274
54	0x3a241684	0.00062594586
55	0xb964afba	-0.00021809238
56	0x3addc1bf	0.0016918703
57	0xba8db5c1	-0.0010811613
58	0xba635b6f	-0.00086729875
59	0x3976139e	0.00023467696
60	0x3a9f2e39	0.0012144513
61	0xba940b7e	-0.0011294929
62	0xba46ccce	-0.0007583619
63	0x36d8c0b6	6.459736e-06
64	0x392c5c3e	0.00016437561
65	0xbac9e831	-0.0015404281
66	0x3a629e9d	0.0008644851
67	0xb99b9fcd	-0.00029682965
68	0xba778a77	-0.0009442935
69	0xb930ea27	-0.00016871897
70	0x39c4a6de	0.0003750836
71	0xba2d8a72	-0.0006620056
72	0x3a802429	0.0009776402
73	0x3a88c4b5	0.00104346
74	0x39e73578	0.0004409959
75	0xba8b0398	-0.001060593
76	0x3ab36cd3	0.0013689048
77	0x3a6bc675	0.0008994111
78	0x3ac8d40d	0.0015321985
79	0xba540db9	-0.0008089203
80	0xbabbf054	-0.0014338591
81	0x3adb7310	0.0016742665
82	0xbad0531b	-0.0015893908
83	0x3a9c17e4	0.0011908975
84	0xb941ac6e	-0.0001847015
85	0x3a7526b4	0.00093517755
86	0xb9ce68bb	-0.00039369412
87	0xbab85d2f	-0.0014065857
88	0x3ae0bca2	0.0017146061
89	0xba852753	-0.0010158814
90	0x3abd6912	0.0014450869
91	0xbad022be	-0.0015879495
92	0x3a5d9b3c	0.00084536127
93	0xb8a3e2b6	-7.814674e-05
94	0xbab489ae	-0.0013773942
95	0x3a69a17d	0.0008912308
96	0xbaa7887b	-0.0012781763
97	0x3a19f468	0.0005872906
98	0xbac3fbb2	-0.001495233
99	0xbaa86229	-0.0012846637
100	0x3a0ec375	0.00054459955
101	0x3b23a863	0.0024972192
102	0x3aa244bf	0.0012380107
103	0x3a312b0d	0.0006758429
104	0xb8aaded6	-8.147738e-05
105	0x3a0a58d4	0.00052775186
106	0xba0f8e66	-0.0005476236
107	0xbab7edd7	-0.0014032674
108	0xb92ebb33	-0.0001666367
109	0xbb18b69e	-0.0023302208
110	0x3a2fa7f1	0.00067007454
111	0xb99d4209	-0.00029994574
112	0xb9948986	-0.00028331223
113	0xbaea0e48	-0.0017857039
114	0xba67ff36	-0.000884998
115	0xba21629e	-0.00061563577
116	0xb91b0b00	-0.0001478605
117	0x390b27ec	0.00013270945
118	0xbab04e02	-0.0013450983
119	0xba8c6bed	-0.0010713317
120	0x3abaceaa	0.0014252265
121	0xb9a39ee1	-0.00031208157
122	0xba9a895b	-0.0011790203
123	0x3a0eb1f4	0.0005443387
124	0xba73d9e2	-0.00093021814
125	0x3aebfda3	0.0018004667
126	0x3b46f729	0.0030359721
127	0xb8dc614f	-0.000105085426

arith.constant13 f4 [128]
0	0xba5c24bb	-0.0008397807
1	0xbabbbedc	-0.0014323848
2	0x3adb2191	0.0016718378
3	0xba2ddb76	-0.00066321285
4	0x3a4d6665	0.00078353874
5	0x3a683b00	0.00088588893
6	0xbaa27a63	-0.0012396093
7	0xba0f99f9	-0.0005477961
8	0x3c0735d4	0.00825258
9	0x3844f338	4.6956557e-05
10	0xbb02fdcc	-0.00199877
11	0xba616eb6	-0.0008599566
12	0xbb304a3d	-0.0026899718
13	0xbabc2e47	-0.0014357053
14	0xba89fc5d	-0.0010527481
15	0x39d505b0	0.00040630763
16	0x3a827983	0.0009954426
17	0xba9794ae	-0.0011564696
18	0xb982eed2	-0.00024973467
19	0xba7f16b1	-0.00097308593
20	0xbb1a828e	-0.0023576352
21	0xba549195	-0.00081088516
22	0x3a1d009e	0.00059891667
23	0x39abc9f0	0.00032766117
24	0x39b73c4b	0.00034949402
25	0x39d63811	0.00040859033
26	0xba4be5e4	-0.0007778092
27	0x3ad1e82d	0.0016014628
28	0x39e0f3b0	0.0004290617
29	0xbb5af1cb	-0.003340828
30	0x3a47a6ef	0.00076161226
31	0xba4e5927	-0.0007871561
32	0xbab5ccfc	-0.0013870294
33	0xb9bb7ad9	-0.00035758948
34	0x3a04097a	0.00050368125
35	0xb9c4f427	-0.0003756594
36	0x39c5c946	0.00037724728
37	0x3aeaaf4a	0.0017905023
38	0xb9dd094e	-0.00042159337
39	0xbaa4a7db	-0.0012562232
40	0x39a34cc3	0.00031146975
41	0x3a4f1aac	0.0007900398
42	0xba159ccc	-0.00057072635
43	0x3abded53	0.0014490284
44	0x3bf59de2	0.0074956277
45	0x3a9d1cba	0.0011986711
46	0xb9aed8bf	-0.00033349355
47	0xbaa4e651	-0.0012580847
48	0xb955aae0	-0.00020376919
49	0xba9a522f	-0.001177376
50	0x3b06174a	0.0020460659
51	0xba738766	-0.00092898903
52	0xba5c005e	-0.00083923887
53	0x39bfced3	0.00036584455
54	0x3a8c5a7c	0.0010708119
55	0x39e71c96	0.00044081052
56	0x3a743929	0.0009316379
57	0xbaa84eaa	-0.0012840827
58	0xba1b582b	-0.0005925919
59	0x3b0e0296	0.0021669022
60	0xba7546d4	-0.00093565625
61	0xb9433a03	-0.0001861826
62	0xba5ff430	-0.00085431617
63	0xb914eb43	-0.00014202022
64	0x3a4ed49d	0.0007889958
65	0xbafeb6e1	-0.0019433164
66	0x3a68aa31	0.0008875458
67	0xba154603	-0.00056943315
68	0xb9b2cafd	-0.00034102044
69	0x39bbac41	0.0003579576
70	0xba071f6a	-0.00051545224
71	0xba908cc9	-0.0011028285
72	0xb99d0721	-0.00029950685
73	0x3ac4b184	0.0015006517
74	0x3b3c7451	0.0028755853
75	0xba9b1ae7	-0.0011833579
76	0x3a82dee8	0.0009984644
77	0x3afc5553	0.0019251503
78	0x3987ce2a	0.0002590281
79	0xba2b70c3	-0.0006539935
80	0xbab8962a	-0.0014082838
81	0x3aa26ba1	0.0012391695
82	0xbad4cb78	-0.0016234955
83	0x3b00926e	0.001961853
84	0xba24b858	-0.0006283573
85	0x3980e187	0.00024582093
86	0xba76a3e6	-0.0009408578
87	0xba2dd5fd	-0.0006631313
88	0xbab7371d	-0.0013978217
89	0xbad6fe99	-0.001640278
90	0x3a812350	0.0009852443
91	0xba970f28	-0.0011524903
92	0x3baaca57	0.005212109
93	0xbaa75736	-0.001276708
94	0xbb88224e	-0.00415448
95	0x3ac4aadd	0.0015004535
96	0xbae4f54b	-0.0017468123
97	0xb94b472a	-0.000193861
98	0xba3cb31b	-0.00071983197
99	0xba1b4f32	-0.0005924582
100	0x3a79b43c	0.0009525453
101	0x3abd6abe	0.0014451367
102	0xba747db5	-0.0009326593
103	0xb9a3e90d	-0.0003126342
104	0x39ca52a9	0.0003859003
105	0x395f966c	0.00021322974
106	0x3963ff00	0.00021743402
107	0xbb39fc0a	-0.0028378987
108	0xb9dcc276	-0.00042106555
109	0xbad50daf	-0.0016254688
110	0xba889bce	-0.001042241
111	0xba8ae1ad	-0.0010595821
112	0x392045e1	0.00015284821
113	0xba902fe1	-0.0011000597
114	0xb8090a36	-3.2672855e-05
115	0xba9ed1d8	-0.0012116982
116	0xb9d6c59d	-0.00040964494
117	0x3a923c49	0.0011156882
118	0xba8650ed	-0.0010247506
119	0xbae67bb6	-0.0017584476
120	0x3aab8734	0.0013086558
121	0x3a69b711	0.00089155236
122	0xba5285e9	-0.00080308184
123	0x3a5dfc65	0.00084680907
124	0xba669f82	-0.0008797572
125	0x3a9be169	0.0011892739
126	0x3ab9729c	0.0014148536
127	0x39404d01	0.00018339233

arith.constant14 f4 [4, 128]
0	0x31f9df2b	7.272225e-09
1	0x3327869b	3.900514e-08
2	0xb374d53b	-5.700461e-08
3	0x3227edaa	9.774718e-09
4	0xb37a143c	-5.8226064e-08
5	0x332507d3	3.8424172e-08
6	0xb3c1ae22	-9.0189374e-08
7	0xb1c3ea35	-5.701873e-09
8	0x3151ab49	3.0510867e-09
9	0x32aef7c2	2.0368933e-08
10	0x322276dc	9.456667e-09
11	0x3275ec13	1.4314554e-08
12	0x33270d0d	3.8894587e-08
13	0x33c4e30f	9.168263e-08
14	0xb35438ef	-4.9411877e-08
15	0xb30d4450	-3.289125e-08
16	0xb18b467e	-4.0534465e-09
17	0x338bd6ff	6.5117995e-08
18	0xb2f7d5be	-2.8851783e-08
19	0x335e7e90	5.180351e-08
20	0xb1dd6fa4	-6.4446386e-09
21	0x32dd9911	2.5797393e-08
22	0xb1721a6f	-3.523066e-09
23	0x31717bc9	3.514048e-09
24	0x330c474d	3.2661138e-08
25	0xb21b4004	-9.036743e-09
26	0x318c1bf5	4.0777146e-09
27	0xb229d048	-9.884452e-09
28	0x31ac5cf8	5.016428e-09
29	0xb28d3689	-1.643936e-08
30	0x3274efdc	1.4257207e-08
31	0xb317517c	-3.5231537e-08
32	0xb2974bc9	-1.7613177e-08
33	0x327e125c	1.478892e-08
34	0xb28bea1f	-1.6288196e-08
35	0x33356549	4.2234465e-08
36	0xb342e817	-4.538023e-08
37	0xb31fc25b	-3.7196838e-08
38	0xb23a0ae3	-1.08291e-08
39	0x3383cf2f	6.137849e-08
40	0x32552248	1.2406026e-08
41	0xb2ccc563	-2.3838487e-08
42	0xb31f0ed8	-3.7033573e-08
43	0x331e03d1	3.6790713e-08
44	0xb2ea9edb	-2.7313424e-08
45	0x32070da5	7.861137e-09
46	0x32f57005	2.8572694e-08
47	0x33125aa4	3.407571e-08
48	0x322db76b	1.011163e-08
49	0x3213c3a8	8.601013e-09
50	0x318ccfb7	4.0981507e-09
51	0x32bf8d72	2.2299648e-08
52	0x32bd53d0	2.204061e-08
53	0x329c813b	1.8219557e-08
54	0xb30c48de	-3.2662562e-08
55	0x2f4dea14	1.8727803e-10
56	0xb33d699c	-4.4101043e-08
57	0x319a40b9	4.489348e-09
58	0xb2a42ff4	-1.911392e-08
59	0x31bd527a	5.5100005e-09
60	0x3195c5e1	4.358967e-09
61	0xb325b3be	-3.858053e-08
62	0x322fc844	1.0231876e-08
63	0xb3158b7d	-3.481863e-08
64	0xb360193e	-5.2177022e-08
65	0xb1a1681f	-4.697554e-09
66	0x324edd77	1.2041133e-08
67	0x3326a3c0	3.8798817e-08
68	0x336e898d	5.5538795e-08
69	0x33309f95	4.1123332e-08
70	0xb2873376	-1.573947e-08
71	0xaf2b1c06	-1.5562315e-10
72	0xb210ba50	-8.424266e-09
73	0xb0435aab	-7.1069434e-10
74	0x319a0c9c	4.4834234e-09
75	0x3153cf0f	3.082224e-09
76	0x32a0f674	1.8738525e-08
77	0x32b79a5b	2.1374197e-08
78	0xb1f5f006	-7.157726e-09
79	0xb3a4f715	-7.681789e-08
80	0x32a2f3cd	1.897015e-08
81	0x331dbd13	3.6726373e-08
82	0xb1d959c7	-6.3257377e-09
83	0xb3116915	-3.3856015e-08
84	0x3333d9ce	4.1874777e-08
85	0xb2442ea6	-1.1419308e-08
86	0xb369db19	-5.4448808e-08
87	0xb1678b9c	-3.3694283e-09
88	0xb189c671	-4.009785e-09
89	0xb211abb1	-8.479149e-09
90	0x316aee94	3.4187098e-09
91	0x33274b10	3.8950986e-08
92	0xb21d151b	-9.143402e-09
93	0x3339f067	4.3292314e-08
94	0xb0db775e	-1.5968273e-09
95	0xb38275e6	-6.075042e-08
96	0x31cdc1d7	5.9883223e-09
97	0x32b4554c	2.0993546e-08
98	0x323dc1ab	1.1045283e-08
99	0x313e166a	2.766138e-09
100	0x31fa168a	7.27852e-09
101	0xb1862033	-3.903574e-09
102	0xb2b8e046	-2.1522407e-08
103	0xb2380ea2	-1.0713537e-08
104	0x33381ff2	4.2869893e-08
105	0xb28b1275	-1.6190123e-08
106	0x339351fc	6.860134e-08
107	0xb3ab13c9	-7.966407e-08
108	0x31748e73	3.5587646e-09
109	0xb27cb7b0	-1.4710096e-08
110	0x32861abe	1.5611814e-08
111	0x32aa1348	1.9799373e-08
112	0xb32128fd	-3.7523012e-08
113	0x32110e89	8.443416e-09
114	0xb3bd3c30	-8.8119464e-08
115	0x323ad7a9	1.087566e-08
116	0x32d3da4a	2.46629e-08
117	0x31f87434	7.2309607e-09
118	0x31bee881	5.5561604e-09
119	0xb2e16575	-2.6239585e-08
120	0xb2f2aee0	-2.8252032e-08
121	0x334dfaae	4.7958274e-08
122	0xb2d9481f	-2.5294922e-08
123	0xb2335e50	-1.04406155e-08
124	0x336d4fa9	5.5253313e-08
125	0xb29a4e88	-1.7963671e-08
126	0x32a29ee9	1.8931546e-08
127	0xb2c43626	-2.2842027e-08
128	0xb29b738f	-1.8096925e-08
129	0x31c1bdbe	5.6386105e-09
130	0x31de03b4	6.4614714e-09
131	0x31f15436	7.023597e-09
132	0xb0edf45a	-1.7313468e-09
133	0x323453bb	1.0496417e-08
134	0x3188d135	3.981905e-09
135	0x320422be	7.691311e-09
136	0xb27b644c	-1.4632928e-08
137	0xb2225a17	-9.450125e-09
138	0x314e60e1	3.0032015e-09
139	0x327ac391	1.4596382e-08
140	0xb1bbc1f1	-5.464465e-09
141	0xb3206c9e	-3.735169e-08
142	0x320f1a6e	8.329705e-09
143	0x3315bafe	3.4861834e-08
144	0x32cf81c8	2.415699e-08
145	0xb317514a	-3.523136e-08
146	0xb27bc49d	-1.4654828e-08
147	0x3236017b	1.0594131e-08
148	0xb2ccdc8c	-2.3849019e-08
149	0xb30747cd	-3.149744e-08
150	0xb214d04e	-8.662097e-09
151	0xb2886d91	-1.5882309e-08
152	0x333fb72f	4.4637257e-08
153	0xb0c40aec	-1.4263981e-09
154	0xb2198d83	-8.937948e-09
155	0xb23855f2	-1.0729751e-08
156	0x31c8a992	5.840044e-09
157	0xb193c0d2	-4.300184e-09
158	0xb2ab886f	-1.9969063e-08
159	0xb14bdee7	-2.9667093e-09
160	0x328d4a2a	1.6448286e-08
161	0x31e4c725	6.6583135e-09
162	0xb2fc8b1f	-2.9399926e-08
163	0xb12d4a8f	-2.5217195e-09
164	0xb28ee20d	-1.6633772e-08
165	0xb22d2145	-1.007749e-08
166	0xb2afa153	-2.0446043e-08
167	0xb22f2cbb	-1.0196511e-08
168	0xb1d27263	-6.1248087e-09
169	0xb0c4e6ba	-1.4326453e-09
170	0xb2da43b3	-2.5409326e-08
171	0x32b01ed8	2.0503123e-08
172	0xb1be47f8	-5.5379097e-09
173	0xb35de058	-5.165961e-08
174	0x314969ec	2.930956e-09
175	0xb299f9e3	-1.792518e-08
176	0x32cb0693	2.36353e-08
177	0xb257f798	-1.2570943e-08
178	0xb1084453	-1.9829443e-09
179	0x328a0600	1.6068043e-08
180	0x33aa7cd5	7.938949e-08
181	0x321e56f2	9.2165795e-09
182	0xb2d7e4c3	-2.5133323e-08
183	0x31c51480	5.735785e-09
184	0x31a1218b	4.68953e-09
185	0x320a3407	8.044487e-09
186	0x328949e4	1.59825e-08
187	0x3262923c	1.3188181e-08
188	0xb203e4c9	-7.677223e-09
189	0x31c5ed2d	5.7604184e-09
190	0xb0bdac2c	-1.3800494e-09
191	0xb1322ec2	-2.5928988e-09
192	0x3211939a	8.4736715e-09
193	0x321cda90	9.1300905e-09
194	0x325d65f2	1.2887073e-08
195	0x32e7f2bb	2.700232e-08
196	0xb1ae327d	-5.0698064e-09
197	0x323311fa	1.0423259e-08
198	0xb09dbda0	-1.1477148e-09
199	0xb331faca	-4.1439115e-08
200	0xb13369e8	-2.610813e-09
201	0x3347a7c9	4.6485898e-08
202	0x2ebe55a6	8.655414e-11
203	0xb2511436	-1.2169997e-08
204	0xb31f1e23	-3.704748e-08
205	0x32b40d88	2.0960911e-08
206	0xb26e48c8	-1.3869972e-08
207	0x328ece84	1.6624888e-08
208	0xb2d257a5	-2.4487074e-08
209	0xb1d4fcbe	-6.1987455e-09
210	0x31da9dfb	6.3625953e-09
211	0xb1db7c08	-6.3878396e-09
212	0x32a492eb	1.9158923e-08
213	0xb1fd32ef	-7.3690596e-09
214	0xb2563f5f	-1.2470848e-08
215	0xae74fd5d	-5.570421e-11
216	0xb203e707	-7.677733e-09
217	0x30cb472b	1.4790421e-09
218	0xb22fa378	-1.0223509e-08
219	0xb1e15c8d	-6.5588837e-09
220	0xb0b44136	-1.3115258e-09
221	0xb12d356e	-2.5205185e-09
222	0xb34d5715	-4.7809483e-08
223	0x31a59329	4.818862e-09
224	0x320dead1	8.260671e-09
225	0xb374f1cb	-5.7030586e-08
226	0x326411f9	1.3275433e-08
227	0xb2b4e234	-2.1057623e-08
228	0xb336b568	-4.2540165e-08
229	0xb2e6a7c6	-2.6851819e-08
230	0xb10a84ad	-2.015706e-09
231	0xb2f4ad7e	-2.8484234e-08
232	0x31d9ebb7	6.342329e-09
233	0x32b337d2	2.0863727e-08
234	0x30a3d927	1.1921529e-09
235	0xb229d606	-9.885758e-09
236	0x3236682b	1.0617479e-08
237	0x329c3d61	1.8188702e-08
238	0xb08ae79b	-1.0106648e-09
239	0xb080ca71	-9.370763e-10
240	0xb2259062	-9.637093e-09
241	0x334656ca	4.61794e-08
242	0xb1c6c967	-5.7854552e-09
243	0x3225c44f	9.6488995e-09
244	0xb30aea8f	-3.234396e-08
245	0xb24f5581	-1.2068427e-08
246	0x32a624a6	1.934161e-08
247	0xb29d8f42	-1.8342352e-08
248	0x32d322f7	2.4579533e-08
249	0x32290f51	9.840577e-09
250	0x31cf2df3	6.0297167e-09
251	0xb2b8b223	-2.1501426e-08
252	0x3262c2c9	1.319922e-08
253	0x2f268e47	1.5148159e-10
254	0xb18a1622	-4.018845e-09
255	0x3304de74	3.0935965e-08

arith.constant15 f4 [4, 128]
0	0xbc59bbb3	-0.01328938
1	0x3c49f07a	0.0123254005
2	0x3c12a646	0.0089507755
3	0xbc6bdb02	-0.014395477
4	0x3ca6e69b	0.020373633
5	0xbc23104f	-0.009952619
6	0x3c219c38	0.009863906
7	0xb9d80f6f	-0.0004121023
8	0x3c359ce8	0.011084773
9	0x3c13e3aa	0.009026447
10	0x3b155960	0.0022788867
11	0xbbd80971	-0.0065929224
12	0xbc4f9568	-0.012669899
13	0xbc0ca05b	-0.008583154
14	0x3c2cd0ba	0.010547811
15	0x3ba5db38	0.0050615333
16	0xbc46ff29	-0.012145796
17	0xbc3e350e	-0.011609329
18	0x3bb860c0	0.005626768
19	0x3aa820f8	0.0012827208
20	0x3b80e174	0.003933126
21	0x3bcc7e73	0.00624066
22	0xbc237c89	-0.009978422
23	0x3be2cc71	0.006921344
24	0xbc072690	-0.00824894
25	0x39a9a761	0.000323589
26	0xbbbde941	-0.0057956283
27	0x3c5ff667	0.013669587
28	0xbbb337ac	-0.005469283
29	0x3c05226a	0.008125881
30	0x3b15acc8	0.0022838581
31	0x3c0dc4f5	0.008652915
32	0x3a834db3	0.0010017663
33	0xb9e3540e	-0.0004335944
34	0x3b0bd18f	0.0021334623
35	0xbc47eb9f	-0.012202173
36	0x3c31bada	0.010847772
37	0x3a147226	0.00056627614
38	0x3bef610c	0.00730527
39	0xbbaaad02	-0.0052086124
40	0xbb883bc1	-0.004157514
41	0xbc3c7899	-0.011503362
42	0xbc14aeb8	-0.009074859
43	0xbbb8e534	-0.0056425575
44	0x3bcfd3e7	0.0063423994
45	0xbb78997e	-0.0037933285
46	0xbc2d125c	-0.010563459
47	0xbc4a8ec1	-0.012363137
48	0x3c29a882	0.010355117
49	0xbb31f8ce	-0.0027156356
50	0x3b739341	0.0037166628
51	0xbbec62cd	-0.0072139264
52	0xba520e8d	-0.00080130325
53	0xbbd1944f	-0.0063958536
54	0x3bb52d95	0.0055291154
55	0x3ba0b269	0.0049040806
56	0x3c3196da	0.0108391885
57	0x3aea563a	0.0017878481
58	0xbc43f08c	-0.011959206
59	0x3b6c92a4	0.0036098147
60	0x3b567022	0.0032720645
61	0x3c298fa6	0.01034919
62	0xb73c9439	-1.1240184e-05
63	0x3c504cd6	0.012713632
64	0x3ca88980	0.020573378
65	0x3c43259f	0.011910825
66	0x3b1dafd0	0.0024061091
67	0xb9cac469	-0.0003867478
68	0xbc8f1ca3	-0.01746971
69	0x3ca02046	0.01954664
70	0x3bd0cb99	0.006371927
71	0x3ae12fcc	0.0017180382
72	0x3ba2f0d8	0.0049725585
73	0x3c10bd45	0.008834188
74	0x3b976a16	0.0046208007
75	0xbb31baef	-0.0027119478
76	0xbbedd984	-0.007258596
77	0xbc04ed1c	-0.008113172
78	0x3be7916f	0.0070668976
79	0x3c2d0bfa	0.0105619375
80	0xbba773bf	-0.0051102336
81	0x3c3d2ea9	0.011546769
82	0xba4eebe8	-0.0007893429
83	0x3ba6ecd6	0.005094151
84	0xbc256dd8	-0.01009699
85	0x3b1d53a2	0.0024006148
86	0x3c6cbf04	0.014449839
87	0xbbfb1cdf	-0.007663354
88	0x3af42fc5	0.0018629959
89	0x3bbaf75a	0.005705756
90	0xbc2f0039	-0.010681205
91	0xbc3f9154	-0.011692364
92	0xbb8e491b	-0.004342211
93	0xbc34414f	-0.011001899
94	0xbc7f9c80	-0.015601277
95	0x3c66b564	0.014081333
96	0x3acd11af	0.0015645529
97	0x3ba429aa	0.0050098496
98	0xbc45a953	-0.012064296
99	0xbb45a13a	-0.0030155913
100	0xbc4d34f5	-0.012524833
101	0x3ae5ce8b	0.0017532868
102	0xbc857041	-0.016288878
103	0xbc439b89	-0.011938938
104	0x3c7d5094	0.015461106
105	0xbb5eeb8a	-0.0034014904
106	0xbc938e75	-0.018012265
107	0x3b83c773	0.004021579
108	0xbbcfcc1a	-0.0063414695
109	0x3a02f2e9	0.0004995303
110	0x3b9ab044	0.0047207195
111	0x3be66624	0.007031219
112	0x3c6fb077	0.014629475
113	0xba8657b2	-0.0010249524
114	0x3c46023b	0.012085493
115	0xbbb26d91	-0.0054451902
116	0xbc59998f	-0.01328124
117	0x3b06c8b5	0.0020566408
118	0xbc256dcf	-0.010096981
119	0x3c245339	0.010029607
120	0x3c0c3458	0.008557402
121	0x3c1078aa	0.008817831
122	0x3b63bd00	0.0034750104
123	0x3c6bf950	0.014402702
124	0xbc4aebc2	-0.012385311
125	0x3ac09bde	0.001469489
126	0x3c82c9ad	0.015965307
127	0x3c084431	0.008317039
128	0x3b464cb0	0.0030258112
129	0xbc275f52	-0.010215597
130	0xbbd8738f	-0.0066055725
131	0x3bab03a5	0.0052189403
132	0xbb1d2be5	-0.0023982462
133	0xbb781327	-0.0037853213
134	0x3ae508a2	0.0017473886
135	0xbb54781f	-0.003242023
136	0x3b0a335a	0.0021087737
137	0xbc0c8cfd	-0.008578536
138	0xb9a91c20	-0.00032255147
139	0xba867545	-0.0010258338
140	0x3b09d0db	0.0021029029
141	0xbc439373	-0.01193701
142	0x3abb9dc5	0.0014313987
143	0xbbdbb217	-0.0067045796
144	0xbc4db518	-0.012555383
145	0xbbcf4125	-0.0063249045
146	0x3b65daa2	0.0035072942
147	0x3c0aadbc	0.008464273
148	0xbbd29816	-0.0064268215
149	0xbc8504d6	-0.016237658
150	0xb9fb40a4	-0.00047922612
151	0xbb8075cb	-0.003920292
152	0x3c32af51	0.0109060565
153	0xbb478a2d	-0.003044735
154	0xbc1f447a	-0.009720916
155	0xbca9c33c	-0.020722978
156	0xbae1e0ad	-0.0017233096
157	0x3af970f1	0.0019030852
158	0xbc258d89	-0.010104545
159	0xbb134693	-0.0022472485
160	0xbb15bd18	-0.0022848304
161	0x3c90138b	0.017587444
162	0xbba6371b	-0.005072487
163	0x3bf47fc7	0.0074615213
164	0x3c6282be	0.013825117
165	0x3b1a7e0d	0.0023573667
166	0xbc39d621	-0.011342556
167	0xbc6ba89f	-0.014383464
168	0x3b2a3fb5	0.0025977914
169	0x3c0d830d	0.008637202
170	0xbbefcc45	-0.007318052
171	0x3abb2a31	0.0014279542
172	0x3b79c3d9	0.003811112
173	0xbc1d01f4	-0.009582985
174	0xbc4f08a2	-0.012636336
175	0xbb618fab	-0.0034417908
176	0xbc4d1de5	-0.012519334
177	0xbaf643d7	-0.0018788528
178	0x3b87a4b3	0.0041395067
179	0x3c2ab955	0.010420163
180	0x3c8207ac	0.015872799
181	0x3b918626	0.0044410406
182	0xbbafbbcf	-0.0053629647
183	0xbbb116f5	-0.005404348
184	0x3a356919	0.0006920263
185	0xbbb4196c	-0.0054961946
186	0x3a657b62	0.0008754042
187	0xba4e9867	-0.0007880986
188	0x3b697815	0.0035624553
189	0xbade5245	-0.0016961774
190	0xbc09441b	-0.008378054
191	0xbbd328ab	-0.006444057
192	0xbaffd3b2	-0.0019518046
193	0xbb2e062f	-0.0026553979
194	0x3bab34e1	0.0052248095
195	0x3b948473	0.0045323907
196	0xba190ef1	-0.0005838713
197	0xb846b2e9	-4.73735e-05
198	0xbb162875	-0.0022912298
199	0xbc157daf	-0.009124204
200	0xbc463523	-0.01209763
201	0x3c084546	0.008317297
202	0xbbf9dfc9	-0.007625554
203	0xbba3070e	-0.004975206
204	0xbc269b9d	-0.010168937
205	0x3b600e90	0.0034188367
206	0xbb97858a	-0.0046240734
207	0x3c03d608	0.0080466345
208	0x3ba8ac9b	0.0051475293
209	0xbbe288a4	-0.0069132615
210	0x38bcbe32	8.999965e-05
211	0x3c4160b2	0.011802839
212	0x3b8a6aca	0.004224156
213	0xbbffc81c	-0.0078058373
214	0xbb05a437	-0.002039207
215	0xba5fbf38	-0.0008535269
216	0xbb1a305c	-0.002352736
217	0xb70d4b01	-8.421718e-06
218	0x3b1b22ca	0.002367186
219	0x3bf2f5d5	0.0074145594
220	0x3be48244	0.0069735367
221	0xbb0cc789	-0.0021481237
222	0xbb8cd867	-0.004298258
223	0xb9761fec	-0.0002347228
224	0x3ba35a94	0.004985163
225	0x3c1a96cc	0.009435367
226	0x3b019deb	0.0019777964
227	0xbbb97e84	-0.005660834
228	0x3c5715fc	0.0131278
229	0xbbff96c4	-0.007799955
230	0x3c39a4b5	0.011330773
231	0x3c24808d	0.0100404145
232	0x3b4c9c5c	0.0031221127
233	0xbc46e512	-0.012139576
234	0xbb769f1d	-0.003763146
235	0xbb546343	-0.0032407797
236	0xba4f8978	-0.0007916908
237	0x3be5f9b6	0.0070182933
238	0x3b8b212f	0.004245899
239	0xbc1b0040	-0.009460509
240	0xbc0638b3	-0.008192229
241	0x3bc7937f	0.006090581
242	0xb9f63374	-0.00046959112
243	0x3c52e382	0.012871625
244	0x3c1cfc0a	0.009581575
245	0xbbd6d514	-0.0065561626
246	0xbc617983	-0.013761881
247	0x3c02e5ad	0.007989329
248	0x3c30072a	0.010743896
249	0x3be2c773	0.006920749
250	0xba9b0f59	-0.0011830135
251	0xbbbbe41e	-0.005733981
252	0xbc64cdca	-0.01396508
253	0x3a59983c	0.0008300578
254	0x3ad3a089	0.0016145866
255	0x3c3cb880	0.011518598

arith.constant16 f4 [4, 128]
0	0x3b1affd9	0.0023651032
1	0xbaa441f3	-0.0012531861
2	0x3a71df2c	0.00092266756
3	0xbaf0d8c6	-0.001837515
4	0xb8e336bf	-0.00010834401
5	0xbade3228	-0.0016952204
6	0x3aa69091	0.0012707879
7	0x3a1a13a4	0.00058775605
8	0xba52139b	-0.00080137857
9	0xb8c5d570	-9.433448e-05
10	0xb98be7b7	-0.00026684787
11	0x3a30317f	0.00067212427
12	0x39a45132	0.00031341013
13	0xba8deafa	-0.0010827475
14	0x3a315bef	0.00067657133
15	0xba0e4028	-0.000542643
16	0x3b2b56fc	0.0026144376
17	0x38c02a07	9.163102e-05
18	0xba76857c	-0.0009404046
19	0x3ac3d706	0.0014941401
20	0xba9f231f	-0.0012141204
21	0x3a900d4c	0.0010990291
22	0x3a5e65ad	0.0008483779
23	0x3a59e273	0.00083116366
24	0xb8b898dd	-8.802277e-05
25	0xbb46ec02	-0.0030353074
26	0x3af79eaf	0.0018891896
27	0x3b87b7a5	0.004141765
28	0xbaa8eb86	-0.0012887574
29	0x3a3b890c	0.00071539055
30	0x3aa9651a	0.0012923807
31	0xbaa203c3	-0.001236074
32	0x3b61a8b9	0.0034432842
33	0xba385498	-0.00070316484
34	0x39895f45	0.00026201658
35	0xba1b2a0a	-0.0005919045
36	0x3a21b74d	0.00061689765
37	0x39c5e4f0	0.0003774534
38	0x39b0225a	0.0003359493
39	0xbb72a689	-0.0037025532
40	0x3945a8d7	0.00018850282
41	0x3a8712c5	0.0010305276
42	0xbaa82e58	-0.0012831194
43	0xba638af7	-0.000868007
44	0x3acf8828	0.0015833424
45	0x392edbd7	0.0001667583
46	0x3aa04839	0.0012228555
47	0x3afbe114	0.0019216859
48	0x3a878660	0.001033973
49	0xbaa8d0a5	-0.0012879564
50	0x3a8d5d33	0.0010785222
51	0x3aaab865	0.0013024925
52	0xbad56089	-0.001627938
53	0xb9895f31	-0.000262016
54	0x3aabd6b5	0.0013110252
55	0xba372bf0	-0.0006987443
56	0xb83dcf70	-4.5254303e-05
57	0xbb2862cb	-0.002569365
58	0xba3a78bd	-0.00071133283
59	0xbaeca429	-0.0018054295
60	0xb91e83d3	-0.00015117163
61	0x38e69b6a	0.00010996203
62	0xbab306e3	-0.0013658669
63	0xba74981d	-0.0009330528
64	0xb887b57b	-6.471105e-05
65	0x3a97424c	0.0011540144
66	0xba3cf0c3	-0.0007207507
67	0x3a93b3e7	0.0011268825
68	0x3774ec92	1.4598614e-05
69	0x3b02f13c	0.0019980213
70	0x38c41c35	9.351262e-05
71	0xbb57166e	-0.0032819766
72	0xb91011c8	-0.00013739534
73	0x3a087309	0.000520513
74	0xbaf7a845	-0.0018894753
75	0x3960bbe2	0.00021432296
76	0xba3f1d65	-0.0007290452
77	0x3aba08fa	0.0014193349
78	0xba1d2d60	-0.0005995836
79	0x3ae68a72	0.0017588867
80	0xba5045bd	-0.0007944962
81	0x39d76da5	0.00041089687
82	0x3a670621	0.0008812864
83	0x3b11926c	0.0022212518
84	0xba634437	-0.00086695276
85	0x3a29c02f	0.0006475476
86	0x3a06cf84	0.00051426166
87	0xb913c21c	-0.00014091324
88	0xbaa93c57	-0.001291166
89	0xba629724	-0.00086437375
90	0x3a43704e	0.00074553944
91	0x39fb5e2c	0.00047944614
92	0xba91ddf9	-0.0011128775
93	0x3a0ca600	0.0005365312
94	0x3a0b7fc1	0.0005321466
95	0xb9451aef	-0.00018797418
96	0xb92aba87	-0.0001628195
97	0x3a7e2552	0.0009694892
98	0x3b7b99b8	0.0038391184
99	0xb9c786dd	-0.0003805672
100	0x3a202161	0.00061084895
101	0xb9d39618	-0.00040356885
102	0xbac065ac	-0.0014678738
103	0xba3cb2ad	-0.00071982556
104	0xb91ce99f	-0.0001496435
105	0xb9b121ce	-0.00033785257
106	0x3aaf0fc9	0.0013356145
107	0xba56e75c	-0.00081979274
108	0x38d12576	9.972874e-05
109	0xba5f685b	-0.0008522325
110	0xb986047d	-0.00025561816
111	0x39fc85f6	0.00048164994
112	0xba45e809	-0.00075495295
113	0x3a273018	0.0006377711
114	0x3a982402	0.0011607411
115	0x3a81f3aa	0.0009914536
116	0x39c21ea2	0.00037025387
117	0x3a0a628d	0.00052789674
118	0x3a20e02f	0.00061369216
119	0x3a240c19	0.0006257906
120	0xba46bb9f	-0.00075810583
121	0xbad297aa	-0.0016066928
122	0xba94a7fa	-0.0011341565
123	0xba27ad62	-0.00063963805
124	0x3a2ee361	0.00066714553
125	0xba82e274	-0.0009985701
126	0x3ad86712	0.001651021
127	0xb9d15ad9	-0.00039931273
128	0xba288cb6	-0.0006429659
129	0x37f28fb7	2.891557e-05
130	0xb9dc2b57	-0.0004199396
131	0x3a08e0e8	0.0005221502
132	0xba57baf5	-0.0008229458
133	0xba8fc483	-0.0010968599
134	0x38b4959b	8.610935e-05
135	0xba6a7335	-0.0008943559
136	0x3ac14ae3	0.001474705
137	0x3ab8ea41	0.0014107899
138	0x3a8739e6	0.0010316938
139	0x39b4543e	0.0003439504
140	0x3a43d811	0.0007470856
141	0x3a63184f	0.0008662985
142	0xb9095f65	-0.00013100875
143	0xb838cf63	-4.4062162e-05
144	0xb9fa8760	-0.00047784578
145	0xba413678	-0.0007370482
146	0x39800f6a	0.00024425547
147	0x398d018a	0.00026894762
148	0xba2fb683	-0.00067029166
149	0xb8d53e8a	-0.0001016828
150	0xba53fa72	-0.00080863305
151	0xb8935e81	-7.027109e-05
152	0x371bbe10	9.282972e-06
153	0x39ca9a9b	0.00038643632
154	0x3aa6352d	0.0012680643
155	0xbb1215dc	-0.0022290861
156	0x3ac05bc3	0.0014675785
157	0x3aaa98d6	0.0013015519
158	0x3a08ff94	0.00052260724
159	0x3a5f453c	0.00085170916
160	0x39b2f498	0.00034133042
161	0x39eebdfc	0.00045536447
162	0x392037aa	0.00015279526
163	0xba60c52e	-0.0008574304
164	0xbafca40b	-0.0019274963
165	0xbad7c8e6	-0.0016463071
166	0x3a7ae4fa	0.00095708633
167	0x3aefd35d	0.0018297244
168	0xbad0362e	-0.0015885287
169	0x3ac7a5be	0.001523189
170	0x38920a87	6.9637834e-05
171	0x38af8d41	8.370961e-05
172	0x3a284d0d	0.0006420173
173	0x3997d48d	0.00028959327
174	0x3a6789da	0.0008832492
175	0x3a8e6a7f	0.0010865479
176	0xba252631	-0.00062999415
177	0x39bc6ba5	0.00035938356
178	0x3b09e68b	0.0021041955
179	0x3a5d0139	0.0008430663
180	0xba982854	-0.0011608698
181	0xb82f7beb	-4.183866e-05
182	0x3a8558fb	0.0010173613
183	0x3aba8353	0.0014229811
184	0xba21a391	-0.0006166036
185	0xbaecaa7f	-0.0018056183
186	0x3a1391ac	0.0005629312
187	0xb98c0de6	-0.00026713236
188	0xbab58bcd	-0.0013850868
189	0x39f0b341	0.00045909922
190	0x38ecb1ba	0.00011286461
191	0xba3c2e09	-0.00071784906
192	0x39b41042	0.00034344388
193	0x3b41c82c	0.0029568775
194	0xbae91a35	-0.00177843
195	0xb9ca3288	-0.0003856609
196	0xba76b6fa	-0.0009411421
197	0xba00fae5	-0.00049201987
198	0xb9d5b85f	-0.00040763893
199	0xbab9b139	-0.0014167196
200	0xba3c63ee	-0.00071865215
201	0x3a6a3f13	0.00089357904
202	0xba410804	-0.000736356
203	0x3ac5a110	0.0015077908
204	0xbb126763	-0.0022339455
205	0x3afcedd9	0.0019296958
206	0x3ada1a0e	0.0016639845
207	0x3accd831	0.0015628395
208	0xba8f6266	-0.0010939359
209	0xbac51bbe	-0.0015038175
210	0x3ab367da	0.0013687566
211	0xbaadf187	-0.0013270833
212	0x3b25495b	0.0025220725
213	0xbab03514	-0.0013443553
214	0xbacbd01e	-0.0015549695
215	0xb8d9a742	-0.000103785205
216	0x3a5c270f	0.0008398154
217	0xba5b94e4	-0.00083763734
218	0xbaa24c30	-0.0012382325
219	0x3a1e0f0a	0.00060294627
220	0x3a9a4ebd	0.0011772733
221	0xba020477	-0.0004959772
222	0xba2f1f79	-0.000668041
223	0xb9e53a86	-0.00043721887
224	0xbaf96e1f	-0.0019030011
225	0x3a46cf22	0.0007583966
226	0xb9a90827	-0.00032240266
227	0xba99fd5a	-0.0011748478
228	0x398ced11	0.0002687951
229	0x394b4117	0.00019383836
230	0xb9f73402	-0.0004715026
231	0x3af63022	0.0018782655
232	0x3ad6739e	0.0016361361
233	0xb72c55dc	-1.027199e-05
234	0xba0f2983	-0.0005461203
235	0xb8803705	-6.113764e-05
236	0x39dd7ce0	0.00042245444
237	0xba8744fa	-0.0010320239
238	0xbaedf4b2	-0.001815459
239	0xb9b7926f	-0.00035013582
240	0x3a982629	0.0011608052
241	0xba8fc4fc	-0.001096874
242	0xba699873	-0.00089109613
243	0xba95f058	-0.0011439426
244	0xb9856e17	-0.0002544976
245	0xb80b3a7b	-3.3194647e-05
246	0xba201a12	-0.00061074004
247	0xba7ce691	-0.0009647394
248	0xb9f59cf6	-0.00046846987
249	0x39ac0010	0.00032806443
250	0x39b5740c	0.00034609472
251	0x3a5346aa	0.0008059541
252	0x3a3ceb95	0.00072067353
253	0xbaa30d01	-0.0012439789
254	0xbab55d54	-0.0013837018
255	0xb91d3f8d	-0.00014996361

arith.constant17 f4 [128]
0	0xbaa07313	-0.0012241326
1	0xbacd0beb	-0.0015643811
2	0x3ac74070	0.0015201699
3	0xba49abd7	-0.00076931476
4	0x3a74e4f9	0.0009341981
5	0x3ac1d7dd	0.0014789064
6	0xbabee37e	-0.0014563648
7	0xba05bf31	-0.0005102037
8	0x3bde25d1	0.0067794104
9	0x3a099857	0.00052488357
10	0xbaeb063c	-0.0017930935
11	0xba628821	-0.00086415006
12	0xbb31ffca	-0.0027160519
13	0xbaaec056	-0.0013332467
14	0xba91b664	-0.0011116979
15	0x39ce7a02	0.00039382285
16	0x3ab49afc	0.0013779099
17	0xba7b3752	-0.00095831335
18	0xba20ff5d	-0.0006141568
19	0xba417c2b	-0.0007380868
20	0xba071520	-0.0005152989
21	0xba5f3aec	-0.0008515555
22	0x3a0a03e6	0.0005264863
23	0x39fe75c6	0.00048534403
24	0x3982a439	0.00024917888
25	0xb894e83c	-7.100447e-05
26	0xba88c5a6	-0.001043488
27	0x3b11948e	0.002221379
28	0x3a2b91ca	0.00065448566
29	0xbb23305d	-0.0024900653
30	0x3a9923b5	0.0011683615
31	0xba300350	-0.0006714361
32	0xbae3ffda	-0.0017394975
33	0xba422161	-0.00074054865
34	0x3a0139a0	0.0004929546
35	0xb6af5d8e	-5.2262976e-06
36	0x3a797578	0.00095161004
37	0x3a891e02	0.0010461214
38	0xba0be7e9	-0.00053369865
39	0xbaae39bc	-0.0013292353
40	0x38ceec24	9.86683e-05
41	0x3a9305a3	0.001121689
42	0xba158cdc	-0.00057048886
43	0x3aa7d011	0.0012803097
44	0x3bb4a089	0.0055123013
45	0x3abe6ee7	0.0014528901
46	0xb940e0d1	-0.00018394298
47	0xbaa64bc9	-0.0012687381
48	0xb8bdc4fe	-9.048915e-05
49	0xba86f46a	-0.001029623
50	0x3b28248d	0.0025656552
51	0xbab1ccd6	-0.0013565074
52	0xba9a8bc2	-0.0011790919
53	0x3a1c28e4	0.0005957021
54	0x3a416c32	0.0007378488
55	0x3a487a96	0.0007647661
56	0x3acccd0e	0.0015625076
57	0xba836054	-0.0010023215
58	0xba1f36d1	-0.0006073537
59	0x3b191c7a	0.002336292
60	0xbac3a027	-0.0014925048
61	0xb8f1f4ba	-0.000115373594
62	0xba6dbcc5	-0.00090689614
63	0xb9d68a8b	-0.00040920483
64	0x3a81483a	0.0009863444
65	0xbac7df6d	-0.0015249081
66	0x3a78dc02	0.0009493233
67	0xba19b15b	-0.0005862915
68	0xb8c8e429	-9.579241e-05
69	0x3a059983	0.00050964224
70	0xba54e6d2	-0.0008121553
71	0xba66f163	-0.0008809773
72	0xba61d128	-0.00086142356
73	0x3b0e047d	0.0021670156
74	0x3b48be95	0.0030631174
75	0xbb2e7905	-0.0026622426
76	0x3a8ba493	0.0010653905
77	0x3b0155c1	0.0019734951
78	0x37ce1acf	2.4569597e-05
79	0xba2858f2	-0.0006421945
80	0xbacacdf1	-0.0015472752
81	0x3ad3dbb1	0.0016163496
82	0xbb0537e4	-0.0020327503
83	0x3b0eecaf	0.0021808555
84	0xba549ec2	-0.0008110815
85	0x3a0af919	0.00053014007
86	0xba9cc2df	-0.0011959932
87	0xba5b4b05	-0.0008365366
88	0xba224a7d	-0.0006190909
89	0xbabd4287	-0.0014439382
90	0x3aa6d031	0.0012726841
91	0xba947f6f	-0.0011329482
92	0x3b034968	0.0020032767
93	0xbab0be25	-0.0013484402
94	0xbb1e1ec0	-0.0024127215
95	0x3afe8944	0.001941957
96	0xbb06d374	-0.0020572813
97	0x37a3a27c	1.9506777e-05
98	0xba40f2e1	-0.00073604105
99	0xb9c3652b	-0.00037268674
100	0x3aa9d508	0.0012957165
101	0x3b1dd846	0.0024085208
102	0xba471d0c	-0.0007595576
103	0xb9e70183	-0.0004406088
104	0xb856c556	-5.120536e-05
105	0x395929b2	0.00020710265
106	0xb9d6cd43	-0.00040970193
107	0xbb42e11a	-0.0029736222
108	0xba4d2d5d	-0.0007826889
109	0xba83aa2e	-0.0010045224
110	0xbabffa78	-0.0014646789
111	0xba9bd1a5	-0.001188804
112	0xb95a1730	-0.00020798738
113	0xba9a83e0	-0.0011788569
114	0xb98597ec	-0.00025480927
115	0xbad5891e	-0.0016291474
116	0x36bfb513	5.7133234e-06
117	0x3a6d3d63	0.000904998
118	0xba7521a2	-0.000935102
119	0xbae3ae5c	-0.0017370689
120	0x3ae272ef	0.0017276685
121	0x3b4c0d17	0.0031135732
122	0xba461624	-0.00075564
123	0x3a325a15	0.00068035844
124	0xba655421	-0.0008748193
125	0x3ac01927	0.0014655933
126	0x3a746bf0	0.0009323945
127	0x3a2da591	0.00066240976

arith.constant18 f4 [1, 1, 128]
0	0x3a3b8a53	0.0007154096
1	0xb9faadec	-0.00047813298
2	0xb944e08b	-0.00018775665
3	0x3aa90e93	0.001289802
4	0xba238da5	-0.0006239063
5	0x3b1def5f	0.0024098975
6	0x3ad33f20	0.0016116835
7	0x3b154d8d	0.002278182
8	0x3b4f28c5	0.0031609994
9	0x38cf95bb	9.898419e-05
10	0xba6ba578	-0.00089891953
11	0xbbadcd3f	-0.0053040083
12	0xbae85aba	-0.0017727234
13	0x3ab7aabe	0.0014012677
14	0xb88f1ca3	-6.8241054e-05
15	0x3b1dbf84	0.002407045
16	0xbb4fedc5	-0.0031727415
17	0xb6af93d3	-5.2326154e-06
18	0x393198f7	0.00016937019
19	0xbab0bcb6	-0.0013483975
20	0xba88a7b8	-0.0010425961
21	0xba396e44	-0.0007073621
22	0x3a752ccb	0.0009352683
23	0x3b17d804	0.0023169527
24	0x3ada1dbf	0.0016640945
25	0x3995afb1	0.00028550395
26	0xbad320ef	-0.0016107837
27	0x399ad1f6	0.00029529602
28	0x3a7b1391	0.0009577806
29	0x3aeb298a	0.0017941457
30	0xbab64bf3	-0.0013908133
31	0x3b033620	0.0020021275
32	0xbad471f4	-0.0016208277
33	0x3a28f41c	0.00064450665
34	0x3b6895db	0.0035489711
35	0x3a86da04	0.0010288362
36	0x3b3b9a31	0.002862584
37	0xb946dba9	-0.00018964581
38	0x3bc4ec04	0.0060095806
39	0xbb6349ba	-0.0034681396
40	0x390f442a	0.00013662936
41	0x3a30886e	0.0006734197
42	0x3a9eacc2	0.0012105929
43	0x399ae0ca	0.0002954065
44	0xba845fc8	-0.0010099346
45	0x3adf2fdc	0.0017027813
46	0x3a8bc576	0.0010663706
47	0xbad722f9	-0.0016413621
48	0x3a86fbab	0.0010298392
49	0x3a81072b	0.0009844055
50	0x3b00633e	0.0019590403
51	0xbb57d64d	-0.003293413
52	0xbabb3721	-0.0014283397
53	0xbaf6d804	-0.0018832688
54	0xb8a4b1e2	-7.853263e-05
55	0xb9bc761d	-0.00035946156
56	0x3b47f4dc	0.0030510938
57	0xb98f34e9	-0.00027314507
58	0x39d32c4d	0.00040278063
59	0x3b8ac5da	0.0042350115
60	0xb993615c	-0.00028110563
61	0x3b3987b4	0.0028309645
62	0x36acd34d	5.150598e-06
63	0xbb0f7e3f	-0.0021895317
64	0x3a46f56e	0.00075896725
65	0x3a932b22	0.0011228065
66	0x3a9251fc	0.0011163349
67	0xba706012	-0.0009169589
68	0x3aff6625	0.0019485397
69	0x3400e3e6	1.2003838e-07
70	0xbb019422	-0.0019772132
71	0xba59342b	-0.00082856667
72	0xbae2fab6	-0.0017317149
73	0x3a6219c0	0.0008625053
74	0x3b7ed866	0.0038886308
75	0xbb07169f	-0.0020612848
76	0xbb21e69d	-0.0024704107
77	0x3af8c6db	0.0018980162
78	0x3a8d4250	0.0010777209
79	0xbb21c3bf	-0.0024683324
80	0x3a7c6b28	0.00096290046
81	0x3a843f3a	0.0010089644
82	0xb99e39f6	-0.00030179293
83	0xba8682b7	-0.0010262345
84	0xbb47b626	-0.003047356
85	0x3a843a5c	0.0010088193
86	0xbb1d3461	-0.002398752
87	0x3b0fc2d5	0.0021936197
88	0xb98e0a15	-0.00027091862
89	0x39872f66	0.0002578452
90	0x3a32671f	0.00068055274
91	0xbacc9a73	-0.0015609994
92	0x3a93e7b5	0.0011284264
93	0xbab70776	-0.0013964016
94	0x398c5caa	0.0002677192
95	0x3b9542d2	0.0045550847
96	0xba06f280	-0.00051478297
97	0x3a64d5db	0.0008729377
98	0x3b11c724	0.0022243941
99	0x3a2c600a	0.000657559
100	0x3ab963c0	0.0014144108
101	0x3addee60	0.0016932003
102	0xba4172a7	-0.000737945
103	0xbb150668	-0.0022739414
104	0x3a958acd	0.0011409164
105	0xbac8f352	-0.0015331304
106	0x3b7ce473	0.0038588315
107	0xbb3ac552	-0.002849896
108	0xba487f1e	-0.00076483365
109	0x3942db5b	0.00018582998
110	0xbaa7ab97	-0.0012792227
111	0x3a14a6c1	0.00056706
112	0x3a4551e0	0.0007527154
113	0xbb2d807b	-0.0026474285
114	0x3a7065cc	0.00091704424
115	0x3ad9c523	0.0016614537
116	0xba75de86	-0.0009379167
117	0xb8e4bfdb	-0.00010907623
118	0x3997be7b	0.00028942883
119	0x3997a4a5	0.00028923634
120	0x3b0f404e	0.0021858397
121	0x3ad3e7e1	0.0016167128
122	0x3950cab3	0.00019911937
123	0x3926b10f	0.00015896953
124	0x3aa826f2	0.001282899
125	0x3aa277dc	0.001239534
126	0xbaf7ae5a	-0.0018896565
127	0x38c18686	9.228014e-05

arith.constant19 f4 [1, 1, 128]
0	0x3f7e04fa	0.99226344
1	0x3f7ee65b	0.99570245
2	0x3f801da0	1.0009041
3	0x3f7f55cd	0.99740297
4	0x3f7f361b	0.99691933
5	0x3f7ea20c	0.99466014
6	0x3f80199d	1.0007817
7	0x3f7f0ff7	0.99633735
8	0x3f8053e7	1.0025605
9	0x3f7f7fc8	0.99804354
10	0x3f7ee9cb	0.9957549
11	0x3f7e5070	0.9934149
12	0x3f7fb7ee	0.9989003
13	0x3f7f2ad1	0.9967471
14	0x3f7f5897	0.9974455
15	0x3f7e5922	0.99354756
16	0x3f7f69f8	0.9977107
17	0x3f7ffda7	0.9999642
18	0x3f7e68db	0.99378747
19	0x3f7dcb3d	0.9913824
20	0x3f7e7efd	0.9941252
21	0x3f7fd0a9	0.99927765
22	0x3f7dc11a	0.99122775
23	0x3f7eb4e6	0.9949478
24	0x3f7f374b	0.99693745
25	0x3f7ff040	0.9997597
26	0x3f7e2774	0.9927895
27	0x3f7e4b96	0.99334085
28	0x3f7ea04a	0.9946333
29	0x3f7f14a3	0.99640864
30	0x3f7f7fa7	0.99804157
31	0x3f7f54b3	0.99738616
32	0x3f7de555	0.9917806
33	0x3f7fcb4d	0.9991959
34	0x3f7f11ca	0.9963652
35	0x3f7d181e	0.98864925
36	0x3f7dddd3	0.991666
37	0x3f7fdb8f	0.99944395
38	0x3f7dc86f	0.9913396
39	0x3f7ea1cb	0.99465626
40	0x3f7f7bd7	0.9979834
41	0x3f7fa21b	0.9985673
42	0x3f7fa95f	0.99867815
43	0x3f801787	1.000718
44	0x3f801041	1.000496
45	0x3f7f42d9	0.99711376
46	0x3f7f8a33	0.9982025
47	0x3f7dae64	0.99094224
48	0x3f7f67d7	0.9976782
49	0x3f7f5057	0.99731964
50	0x3f7f883f	0.9981727
51	0x3f7f5e23	0.99753016
52	0x3f7ebd86	0.9950794
53	0x3f7f52e8	0.9973588
54	0x3f800fe5	1.0004851
55	0x3f7f99e6	0.99844205
56	0x3f7e6c2a	0.99383795
57	0x3f8002d9	1.0000869
58	0x3f7ef4a7	0.9959206
59	0x3f7fd51e	0.99934566
60	0x3f7fc587	0.9991078
61	0x3f7f4336	0.9971193
62	0x3f7f973d	0.99840146
63	0x3f7f45ec	0.9971607
64	0x3f7eb884	0.995003
65	0x3f7ee984	0.99575067
66	0x3f804788	1.002183
67	0x3f7f78fe	0.99793994
68	0x3f7f699b	0.99770516
69	0x3f7f53b4	0.99737096
70	0x3f7fb58e	0.99886405
71	0x3f803e82	1.0019076
72	0x3f7f65aa	0.997645
73	0x3f7f9adc	0.9984567
74	0x3f7f06c9	0.9961973
75	0x3f7ecdf5	0.99533015
76	0x3f7ed5ff	0.9954528
77	0x3f7f021a	0.9961258
78	0x3f7ede1b	0.99557656
79	0x3f7f0a02	0.99624646
80	0x3f7f6e49	0.99777657
81	0x3f7fb554	0.9988606
82	0x3f80156a	1.0006535
83	0x3f7f9f87	0.99852794
84	0x3f7eac18	0.99481344
85	0x3f7f41e8	0.9970994
86	0x3f7ef5c6	0.9959377
87	0x3f8021a8	1.0010271
88	0x3f7f9789	0.998406
89	0x3f7f0ab3	0.996257
90	0x3f7de029	0.99170166
91	0x3f7eb5da	0.99496233
92	0x3f8037bb	1.0017008
93	0x3f7f5fbc	0.99755454
94	0x3f7f5f5f	0.997549
95	0x3f7e8f94	0.9943783
96	0x3f7f0bb5	0.9962724
97	0x3f7fd194	0.99929166
98	0x3f7f2433	0.9966461
99	0x3f7fcdb7	0.9992327
100	0x3f7ff199	0.99978024
101	0x3f80067c	1.0001979
102	0x3f7f333d	0.9968756
103	0x3f7f2767	0.996695
104	0x3f7f7598	0.9978881
105	0x3f7f2b06	0.99675024
106	0x3f7f58ca	0.99744856
107	0x3f7f8454	0.9981129
108	0x3f7ed5e2	0.9954511
109	0x3f7f6e15	0.99777347
110	0x3f7fc3a2	0.99907887
111	0x3f7dabb0	0.990901
112	0x3f7f61d5	0.99758655
113	0x3f7dcae9	0.9913774
114	0x3f80730c	1.003511
115	0x3f7ef8cd	0.9959839
116	0x3f7e190c	0.9925697
117	0x3f7fa24b	0.99857014
118	0x3f7f1eb9	0.99656254
119	0x3f801e76	1.0009296
120	0x3f7de936	0.99183977
121	0x3f7f508e	0.9973229
122	0x3f7ef7e5	0.9959701
123	0x3f7f5b22	0.9974843
124	0x3f8029ef	1.0012797
125	0x3f7f3a9e	0.9969882
126	0x3f801292	1.0005667
127	0x3f802b05	1.0013129

arith.constant20 f4 [1, 1, 128]
0	0x37361634	1.0853215e-05
1	0x3ac11f04	0.0014733975
2	0xbb065e5a	-0.0020503015
3	0x3a8e7162	0.0010867531
4	0x3ac64563	0.001512688
5	0xba8bffbc	-0.0010681073
6	0x39f6211c	0.00046945445
7	0xba86201d	-0.0010232959
8	0x3ad18517	0.0015985098
9	0xbab3a588	-0.0013705948
10	0x39e3367f	0.00043337417
11	0x3a761baf	0.00093882805
12	0x39fcea6d	0.00048239846
13	0x3ab7b755	0.0014016429
14	0x3a8f0f29	0.0010914552
15	0xb8ac4eca	-8.216275e-05
16	0xbaab7d0b	-0.001308353
17	0x39f56546	0.00046805496
18	0x3978aaaf	0.00023714708
19	0xba902c41	-0.0010999517
20	0x38c7b7de	9.5233074e-05
21	0xbaa2600f	-0.0012388247
22	0x3a49782a	0.00076854473
23	0x3ac8771f	0.001529429
24	0x3856140b	5.1040242e-05
25	0x3ac594ab	0.0015074214
26	0xbab37e72	-0.00136943
27	0xba81b64c	-0.0009896248
28	0x399537f8	0.00028461195
29	0xba96e5a0	-0.0011512525
30	0x39fc1f16	0.00048088346
31	0x3a01d970	0.000495336
32	0xbadfe812	-0.0017082712
33	0xb9787724	-0.00023695506
34	0xba41f5b9	-0.0007398981
35	0xbb139ea5	-0.002252498
36	0xbb16ca94	-0.002300893
37	0xbabd8705	-0.0014459795
38	0x394ef688	0.00019737531
39	0x3af1a6b0	0.0018436518
40	0xbaab32e7	-0.0013061435
41	0x390a98c8	0.00013217621
42	0xb99265c1	-0.00027923103
43	0xb8b45ec1	-8.600718e-05
44	0xbb67ec8b	-0.0035388793
45	0x38c00f48	9.15812e-05
46	0xb788609e	-1.6257454e-05
47	0x3a35c0ba	0.00069333205
48	0x3aa4259f	0.0012523419
49	0x3abef85c	0.0014569866
50	0xba51695f	-0.0007988419
51	0xb763d5f9	-1.3580074e-05
52	0xba877660	-0.0010334961
53	0x3b0f1def	0.002183791
54	0xbad23881	-0.0016038568
55	0x3a9b1891	0.0011832883
56	0x39bce4c1	0.0003602859
57	0x3aa81079	0.0012822292
58	0x3ade43b5	0.0016957434
59	0x39d036c7	0.00039713664
60	0x3ab29748	0.0013625408
61	0x3a9faf40	0.0012182966
62	0xba42fcd0	-0.00074381847
63	0x38f9fc02	0.00011920185
64	0xbac59070	-0.0015072953
65	0x3b5094c1	0.0031826945
66	0x3ab2edc6	0.0013651184
67	0x3a459269	0.00075367704
68	0x3a0ead00	0.0005442649
69	0x3a87b9bf	0.0010355039
70	0xb985e796	-0.00025540282
71	0xba344809	-0.0006877189
72	0xb98d0500	-0.0002689734
73	0x3ace8478	0.0015756031
74	0x3922068d	0.00015451964
75	0x3aa3d4b7	0.0012499307
76	0xbad5f234	-0.0016322793
77	0x3a1a4702	0.0005885215
78	0xba821997	-0.0009925839
79	0xbaa348dd	-0.0012457628
80	0x3a4cbe79	0.0007810365
81	0xba9d7811	-0.0012013932
82	0x3b017def	0.00197589
83	0xbaec26b8	-0.001801691
84	0x3a1d1d82	0.0005993472
85	0xba7e7321	-0.00097064866
86	0x3a41ffc8	0.000740048
87	0x3a5e7933	0.0008486688
88	0x3af34175	0.0018558936
89	0x3aa82963	0.0012829717
90	0x38eec1a3	0.00011384792
91	0xb9bf0c58	-0.00036439556
92	0xbacc0c6a	-0.0015567665
93	0x3b09bae6	0.0021015941
94	0x39f6619c	0.000469935
95	0xba8c5c05	-0.0010708576
96	0xb7eff4fd	-2.8605102e-05
97	0xba9b6cf2	-0.001185803
98	0xb8ceedda	-9.867149e-05
99	0xb94ae281	-0.000193486
100	0xba5ef518	-0.000850515
101	0x3a39efe3	0.0007092936
102	0x3a837d28	0.0010031806
103	0xbacd04fa	-0.0015641742
104	0xba11a1cf	-0.00055554224
105	0x3a7e05aa	0.0009690175
106	0x3aca9522	0.0015455822
107	0xb885f787	-6.38804e-05
108	0x3adaebb3	0.0016702324
109	0x3a197ff6	0.00058555545
110	0x3912e5a4	0.00014009193
111	0xba46b973	-0.00075807347
112	0xb8853b9c	-6.353037e-05
113	0x3aabcca8	0.0013107257
114	0xb8b2f332	-8.533e-05
115	0x3889b373	6.566094e-05
116	0xb9b18fac	-0.00033867115
117	0xbafea2d3	-0.0019427188
118	0x39841601	0.00025193396
119	0xba543d57	-0.00080962986
120	0xba097764	-0.0005243926
121	0x3a1d7ca1	0.0006007646
122	0x3a69d367	0.0008919746
123	0x3a008118	0.0004902049
124	0x39cfc5af	0.00039629402
125	0xbb0d5ce0	-0.002157025
126	0x3a26daf8	0.00063650263
127	0x39e7d2dd	0.0004421686
